…
2022-11-18:19:32:34 INFO     [utils.py:170] Cut off 0 instances at len 0 before true ending
2022-11-18:19:32:34 INFO     [utils.py:174] encoded 70285 instances without regard to order
2022-11-18:19:32:34 INFO     [utils.py:163] Total instances: 2838
2022-11-18:19:32:34 INFO     [utils.py:166] UNK tokens : 317 / 223108 (0.0014)     (vocab_size = 1000)
2022-11-18:19:32:34 INFO     [utils.py:170] Cut off 0 instances at len 0 before true ending
2022-11-18:19:32:34 INFO     [utils.py:174] encoded 2838 instances without regard to order
2022-11-18:19:32:36 INFO     [train.py:357] EncoderDecoderTransformerAttention(
  (encoder): EncoderTransformer(
    (embedding): Embedding(1000, 100, padding_idx=0)
    (encoder): TransformerEncoder(
      (layers): ModuleList(
        (0): TransformerEncoderLayer(
          (self_attn): MultiheadAttention(
            (out_proj): NonDynamicallyQuantizableLinear(in_features=100, out_features=100, bias=True)
          )
          (linear1): Linear(in_features=100, out_features=128, bias=True)
          (dropout): Dropout(p=0.1, inplace=False)
          (linear2): Linear(in_features=128, out_features=100, bias=True)
          (norm1): LayerNorm((100,), eps=1e-05, elementwise_affine=True)
          (norm2): LayerNorm((100,), eps=1e-05, elementwise_affine=True)
          (dropout1): Dropout(p=0.1, inplace=False)
          (dropout2): Dropout(p=0.1, inplace=False)
        )
        (1): TransformerEncoderLayer(
          (self_attn): MultiheadAttention(
            (out_proj): NonDynamicallyQuantizableLinear(in_features=100, out_features=100, bias=True)
          )
          (linear1): Linear(in_features=100, out_features=128, bias=True)
          (dropout): Dropout(p=0.1, inplace=False)
          (linear2): Linear(in_features=128, out_features=100, bias=True)
          (norm1): LayerNorm((100,), eps=1e-05, elementwise_affine=True)
          (norm2): LayerNorm((100,), eps=1e-05, elementwise_affine=True)
          (dropout1): Dropout(p=0.1, inplace=False)
          (dropout2): Dropout(p=0.1, inplace=False)
        )
        (2): TransformerEncoderLayer(
          (self_attn): MultiheadAttention(
            (out_proj): NonDynamicallyQuantizableLinear(in_features=100, out_features=100, bias=True)
          )
          (linear1): Linear(in_features=100, out_features=128, bias=True)
          (dropout): Dropout(p=0.1, inplace=False)
          (linear2): Linear(in_features=128, out_features=100, bias=True)
          (norm1): LayerNorm((100,), eps=1e-05, elementwise_affine=True)
          (norm2): LayerNorm((100,), eps=1e-05, elementwise_affine=True)
          (dropout1): Dropout(p=0.1, inplace=False)
          (dropout2): Dropout(p=0.1, inplace=False)
        )
        (3): TransformerEncoderLayer(
          (self_attn): MultiheadAttention(
            (out_proj): NonDynamicallyQuantizableLinear(in_features=100, out_features=100, bias=True)
          )
          (linear1): Linear(in_features=100, out_features=128, bias=True)
          (dropout): Dropout(p=0.1, inplace=False)
          (linear2): Linear(in_features=128, out_features=100, bias=True)
          (norm1): LayerNorm((100,), eps=1e-05, elementwise_affine=True)
          (norm2): LayerNorm((100,), eps=1e-05, elementwise_affine=True)
          (dropout1): Dropout(p=0.1, inplace=False)
          (dropout2): Dropout(p=0.1, inplace=False)
        )
      )
    )
  )
  (decoder): Decoder(
    (action_embedding): Embedding(11, 100, padding_idx=0)
    (target_embedding): Embedding(83, 100, padding_idx=0)
    (lstm): LSTM(200, 100, batch_first=True)
  )
  (attn): ModuleList(
    (0): Linear(in_features=200, out_features=1, bias=True)
  )
  (fc_a): Linear(in_features=100, out_features=11, bias=True)
  (fc_t): Linear(in_features=100, out_features=83, bias=True)
)
2022-11-18:19:32:36 INFO     [train.py:282] Epoch : 1
2022-11-18:19:33:23 DEBUG    [train.py:241] calculating epoch loss...
2022-11-18:19:33:23 INFO     [train.py:296] train loss : 6.286479561545632
2022-11-18:19:33:23 DEBUG    [train.py:215]  preds : tensor([[1, 1],
        [5, 2],
        [5, 2],
        [5, 2],
        [5, 2],
        [5, 2],
        [5, 2],
…
